models/lstm_energy_model.pth (torch, 800511 bytes, 9 tensors)

lstm.weight_ih_l0 f4 [512, 1]
00000000: 9ce0 39be 5114 293d 7072 13be 0194 d8bd
00000010: 0df3 9cbd 39cd 12bc b294 14bd 239b 3bbe
00000020: 19aa 793c 3b97 1ebe f2f8 3fbe e97a 4bbe
00000030: dac0 fd3c 2153 283c 46e0 cdbe 8039 37bd
00000040: 3130 60be 4667 90bd fb34 433c a7a4 253d
00000050: 7e19 863b 812b 9bbe 00d6 d1bd aff2 12be
00000060: 0dbb 9fbd 65a8 e2bb f239 93bd b1f7 04bd
00000070: 8fd7 a9bd e7e2 a8be b8bd 2cbf 0107 c4bd
00000080: e1e6 debe 783b 833d 6b1d 583d eaf6 c5be
00000090: 63de 76be 404d 53bd 6fe7 82bd 72f6 44bc
000000a0: 31a1 c4bd cd51 f0bd 75ae 9d3d 74a2 6abd
000000b0: 88f1 c63d 7fe8 ebbd 61ae bdbd 1f25 03bd
000000c0: b17c 89be ae80 62bd 6f72 20be 2605 19be
000000d0: 8df3 853d e764 74be 4a48 d23c d8d8 57be
000000e0: 66c3 5abe a750 a8bd cd45 47be 4991 1c3d
000000f0: 8f6d 9dbe 614a 72ba e967 b33d d841 ccbd
00000100: a338 2cbe 8668 6cbe 224e 323e 5a98 ddbd
00000110: 1373 f43d e0f0 0fbe ec25 0abd 19ab 983d
00000120: e1fb 81bd e3b4 acbe 49e1 90bd 7988 95be
00000130: f588 b6be db64 7cbb 2d1b 86be ff65 323e
00000140: 4c0f c2bd 7413 a8bd 3efb 56bd 13ac fcbe
00000150: 32fc 873d 5b5d 22bc cb43 92bd 697d 933b
00000160: 7f7e 91bd 1902 1cbe c668 d4bc 49f0 22bf
00000170: 7e8c 95bd 49c9 fdba c894 adbe ecee 9abe
00000180: c1ea afbd 21f5 e5bd 7ece bcbe e586 8abe
00000190: 4cab 9bbc 00b4 8fbe 79b9 03bf 6b7e 5a3d
000001a0: 0313 433d eff5 79be 2069 4bbe a6be dbbd
000001b0: 9ae1 4dbe ebec 583d 03a4 a4bd 7dfd 1bbf
000001c0: ea19 b2bd 6bc8 28be 7577 a4bd 33df ec3d
000001d0: 3202 b4be f8a3 eabd 135a 17be 7b41 26be
000001e0: 7de4 f3be 9063 a4be f7c2 dfbd 1c07 263d
000001f0: 6ee0 45bd 431d 8bbe 6dcc 39be 2502 08bd
00000200: 6975 d03b 57b6 063e 1d52 123e fb07 7d3e
00000210: d978 47bc 6b08 363e 011b f83d adf2 05be
00000220: 3267 0c3e 41f1 a13d 8c1b 903d c0e3 acbd
00000230: a91f 403e 6aa4 b73d 1621 06bd 575c a33d
00000240: e92f bd3a eb7a a0bd 6949 963d 3fae 193e
00000250: 898c 5cbc 34c0 babd 5516 1c3e 610f 5c3d
00000260: f9f3 083e d711 d73d f03d 9a3d ba4b 713e
00000270: 6c94 d93d 112e da3d 5fe5 85be c236 a33d
00000280: ddf5 4cbe 4cf0 4f3e 273f 283e 4aec bdbd
00000290: 3470 4cbe 632a 073e 2d76 473e 8449 463e
000002a0: 5109 063e 7503 1a3e b9d9 163e 07fa aa3d
000002b0: b528 5b3e 9ad1 e63d 5195 2a3e b94d 343e
000002c0: f4a7 59be 2a28 b03d 2f63 a43e 391d 173c
000002d0: c985 a43c 0831 26be 68ba 163e 3077 003e
000002e0: 97f0 01be e08f 6f3c 3bd4 233e aa05 5d3e
000002f0: d393 babd 6600 763e 5507 2c3e e771 ee3c
00000300: b43a 3c3e 5063 103d 4125 bd3e 9bc6 563d
00000310: 7a2d 2b3f e9a2 893e d1ed 563e 93cd 1e3d
00000320: 2321 c8bc ff6e 23be 2a92 4d3e 18d3 adbe
00000330: 21c4 cfbd 6038 b83d 9a79 2bbe 863a 153f
00000340: 7c6a 4f3e 9e4a 483e 6afa b53d 3b3f a6bd
00000350: 2a73 643e 387b 6c3d ec98 623e b63a 9a3d
00000360: aedf b13e 72b3 063d 199b 7f3e 1991 e8be
00000370: 921b fc3d 48bb 3a3e 91fa bcbd 8b66 2abe
00000380: 2f19 4d3e b336 273e 93e4 a33d 42fb 07be
00000390: 0c94 afbb 7b7d 8ebe 525e bbbe 9316 943c
000003a0: 723d 973d ba69 08be 6329 103d ba03 bf3d
000003b0: 0e22 183e a7be b43e d9a5 85bd a7b3 8ebe
000003c0: 7416 073c aa61 843d 34a1 1d3e 72ea 153e
000003d0: 1889 fc3d 3a77 1c3d 295e 5fbd 8d59 eb3d
000003e0: 0ee3 a1be 70ca c6be 11e2 163e 2529 1d3e
000003f0: 1602 3a3e 29a9 1ebe 7bb7 5abe 131b 893e
-0.18152088 0.04127914 -0.14399123 -0.105751045 -0.07663546 -0.008960062 -0.03627462 -0.18320899
0.015238308 -0.15487377 -0.18747309 -0.19871105 0.030975748 0.010273726 -0.4021017 -0.04473257
-0.21893384 -0.07050948 0.011914487 0.040440228 0.0040923944 -0.30306628 -0.102458954 -0.14350389
-0.07799349 -0.006917047 -0.071887866 -0.03246278 -0.08293068 -0.32985613 -0.6747699 -0.095716484
-0.43535522 0.06407827 0.05276243 -0.38664943 -0.24108271 -0.051587343 -0.06391799 -0.012021648
-0.09601057 -0.11734352 0.07699291 -0.057283834 0.09714037 -0.115189545 -0.09261776 -0.032017823
-0.26852944 -0.0552985 -0.15668653 -0.1494337 0.06540594 -0.23866616 0.025669236 -0.21078813
-0.21363601 -0.08218508 -0.1946022 0.038224492 -0.3074765 -0.00092426507 0.08760054 -0.09973496
-0.1681848 -0.23086748 0.17412618 -0.108200744 0.11936011 -0.1405673 -0.03372757 0.07454509
-0.0634687 -0.33731756 -0.0707422 -0.29205683 -0.35651365 -0.0038512263 -0.26192608 0.17421721
-0.09475574 -0.082068354 -0.052485697 -0.49350032 0.06639899 -0.009909953 -0.07141837 0.004501034
-0.07104205 -0.15235175 -0.025928866 -0.63647896 -0.073021874 -0.0019362356 -0.33902574 -0.30260408
-0.08589698 -0.11228395 -0.3687629 -0.2705604 -0.01900258 -0.28067017 -0.51454884 0.053343218
0.047625553 -0.24410222 -0.19864321 -0.10729723 -0.20105591 0.052960318 -0.08039095 -0.6093367
-0.08696349 -0.16482703 -0.08030597 0.11566009 -0.35157925 -0.11457056 -0.14780454 -0.16235916
-0.4763526 -0.3210721 -0.109258585 0.040534124 -0.048309736 -0.27170762 -0.18144388 -0.03320517
0.0063616526 0.13155495 0.14289136 0.24710076 -0.012174808 0.17776649 0.121145256 -0.13080855
0.13711241 0.07907344 0.07036504 -0.08441877 0.18762077 0.08966906 -0.032746397 0.07976597
0.0014433834 -0.07835945 0.073382206 0.15007876 -0.013461241 -0.09118691 0.15242894 0.053725604
0.13374318 0.105014496 0.07531345 0.23564044 0.10624012 0.10653318 -0.2615156 0.079694286
-0.20015664 0.2030651 0.1643034 -0.09273584 -0.19964677 0.13199763 0.19478674 0.19363981
0.13089491 0.15040381 0.14731492 0.0834847 0.21402247 0.11270447 0.16658522 0.17607774
-0.21255475 0.08601411 0.3210692 0.009223276 0.020083325 -0.16229641 0.14719546 0.12545466
-0.12689434 0.014621705 0.15998928 0.21584192 -0.091102265 0.2402359 0.16799672 0.029107047
0.18381768 0.03525096 0.36942485 0.0524355 0.66866267 0.26882103 0.20989157 0.03877027
-0.024429863 -0.1596031 0.20075288 -0.33950114 -0.101448305 0.08995128 -0.16745606 0.58292425
0.20255464 0.19559714 0.08885653 -0.08117529 0.22309557 0.057734698 0.22128648 0.075307295
0.34740967 0.032885976 0.24961509 -0.454232 0.12309946 0.18235505 -0.09227479 -0.1664068
0.20029138 0.1632946 0.080025814 -0.13279441 -0.0053582247 -0.2783011 -0.36595398 0.01807717
0.07384767 -0.13321581 0.03519572 0.09326883 0.14856741 0.35301706 -0.065257736 -0.2787144
0.008245099 0.064639404 0.15393525 0.14640215 0.12330836 0.03819964 -0.054533157 0.1149169
-0.3161854 -0.38826323 0.14734675 0.15347727 0.18164858 -0.15494217 -0.21359055 0.26778468

lstm.weight_hh_l0 f4 [512, 128]
00000000: 861c 53bd abab 02bc 515d 1c3e 0be3 a73d
00000010: fefe b93e 037b ccbb c49d fbbc adfb fa3d
00000020: 9b94 eebd ad39 b6ba 3dc7 53bc fa98 983c
00000030: d658 e03d 1952 483b 1ee3 25be 0bde bc3c
00000040: 55e5 e6bc 2fa0 09be 1ae2 0a3e 4c53 b73d
00000050: 5ccd b13b 9b1d 52bd 6217 c7bc e804 893d
00000060: 7893 04be 55c6 7bbc 3252 a9bc b7d4 cb3c
00000070: 2099 af3d e43e a3bc 28e1 ac3d b8c9 b53d
00000080: cc51 3d3b f75f 44bd d9e3 e53d 858e 8e3d
00000090: 3162 c0bd 1f3e cf3c 00f2 463e 4824 86bd
000000a0: 2c1e da3d f84a bcbd 4623 7bbd a4b4 0f3e
000000b0: 95e3 44bc e8f6 a33c 5b81 01bd b509 a03d
000000c0: a498 dabc a09b ea3d cc62 bdbc 6311 bb3c
000000d0: 4bdd a1bc dc65 e9bd 0885 31bd be79 833d
000000e0: 239a 91bc c86e 0d3e 3116 153d f2bf babd
000000f0: 9ff4 8d3d 575d 89bc 1f39 6a3c f4a9 c23a
00000100: 0417 463d 6e40 b0bd c631 77bd d873 003c
00000110: 18fa 79bd 2f2d 053c 0452 78bc 5dd5 6b3d
00000120: ae52 683d a9cf 20bd b97a 6b3d c2d5 953b
00000130: 4d8b e63d 9a55 083c 0006 f73c 1987 21be
00000140: ce64 95bd 8a32 98bc bd9c 493e a485 dd3d
00000150: d247 eabd c711 823d 4f0a ac3c 5884 2fbc
00000160: 3c40 513c e05a 4c3d 1d1f 5b3c 4cb4 2d3c
00000170: 3e7c 8f3d 55ee 073d b813 ecbd edda ee3d
00000180: ce66 393d 5a7f ae3c 6630 623c 9bee edbd
00000190: 474f 04bc 2ff3 103d b799 f03a f602 98bd
000001a0: 2169 e13c 736e 243d ced1 403e b835 c0bd
000001b0: 0048 dc3d fef3 9ebd 8683 913d 7125 43bc
000001c0: d4ca 803d 0db3 b8bd f65a 1e3d 359a f23d
000001d0: 050d c03d 88ab 07bd 54fe d73d fad3 76bc
000001e0: 544a 7a3d c63d d5bd 41ff 5f3d 9eec bb3b
000001f0: 76ba 54bd 7bb1 c13c 4ba3 a5bb dcc2 413e
00000200: 6425 1cbe 998b 823d 8737 013e 7cc2 233e
00000210: d0dc 183e 7e7d 063e 9df3 f1bd cbbe ac3d
00000220: a375 943d e9e1 05bd b93e a1bc ac88 c0bd
00000230: 4f1e 4ebe 7efe 9abe 0dce 37be 56a2 093e
00000240: dddd 543b e31b ccbd 1596 993d 0b0d 4f3e
00000250: 0661 58bd 0b7b aabd ce35 bb3c 2bbd b7bc
00000260: 7779 54be 32dc 413e f178 fe3d 7d40 1abe
00000270: 1820 553e e28b cf3c d72f b83d 074c 093e
00000280: 2f9f f23d 8565 d03d 79fa 3e3e 6185 f23d
00000290: 52fc b53c 995c 7d3d 142d 1b3e 4f79 563d
000002a0: 07c5 7c3d 275b 68bd f06d 14be 6582 f33d
000002b0: 63e8 4f3e b1af a83d d88c 143e 6c92 afbd
000002c0: f6ad 94bd 3711 72bd ecc3 9dbd 2904 2c3e
000002d0: 1dcb 0f3d b5a6 5f3d 99d9 13be 8ee1 21bd
000002e0: 376f 7cbc 306e 613d 701f b63d 6330 3fbe
000002f0: 187a 2c3e b4fb 1cbe 08cc 22be 52f7 4abd
00000300: c2ff 6a3d 4262 04be b5e8 06be d22a 9ebc
00000310: 7f69 21be dd12 04bd 6364 a73d eea3 263e
00000320: e4be aa3d 91c1 32bc 78c7 1bbe ca4a 56bd
00000330: caf7 fa3d a334 f9bd 7308 7e3d 040a f33b
00000340: 85b0 b83d 1870 b6bd 06da 353e 0fa1 afbd
00000350: a543 59bd dbc3 363e 11aa b73d 40bf b73c
00000360: a40d 1ebe b8b6 c83d b465 69bd 0bd5 8c3d
00000370: 2abd 033e fa37 1f3e cf1d ca39 4cf9 103d
00000380: e3fd 96bd c765 18be 3b52 adbc d87e d2bd
00000390: 2544 07bd c4f0 173c ec79 0b3b 9959 463e
000003a0: 47fe 9bbd 7947 443e 7a9b b53d 78fe c33d
000003b0: a81b 5c3e 57ce 323e 35c2 e73c 7fe9 373d
000003c0: fc9b 7e3d 9e09 4f3d 0c36 153e c74c cabd
000003d0: d465 0f3d 5f35 4bbd 8d51 ebbc b52f 2fbe
000003e0: af67 ac3a a32c 0f3d 6da5 1f3e edeb 2ebe
000003f0: a459 e03d a604 db3d faeb 9d3d 0bb0 473e
-0.051540874 -0.007975499 0.15269972 0.08197602 0.36327356 -0.00624025 -0.030714877 0.122550346
-0.11649438 -0.0013902687 -0.01292592 0.018627632 0.10954444 0.0030566512 -0.1619992 0.023055097
-0.028185526 -0.13440011 0.13562813 0.089514345 0.005426092 -0.051297765 -0.024303142 0.06690389
-0.1294688 -0.01536711 -0.020669077 0.024881704 0.08574128 -0.01992745 0.08441383 0.088763654
0.0028887866 -0.04794308 0.11225099 0.06960777 -0.093937285 0.025298176 0.19428253 -0.06549889
0.10650286 -0.09193987 -0.061312936 0.14033753 -0.01201715 0.020015195 -0.031617504 0.078143515
-0.026684113 0.11455464 -0.0231184 0.02283544 -0.019758841 -0.11396381 -0.04333976 0.06419705
-0.017773693 0.13811791 0.036398116 -0.09118642 0.069314234 -0.01676814 0.014295845 0.0014851675
0.048361793 -0.08606039 -0.060350202 0.007840119 -0.061029524 0.008128448 -0.015156273 0.057576526
0.056719474 -0.03926054 0.057490084 0.004572601 0.11257038 0.00832119 0.030154228 -0.15774192
-0.072946176 -0.018578786 0.19688697 0.108165056 -0.1143948 0.06351047 0.02100101 -0.010712706
0.012771662 0.049891353 0.013374117 0.010602068 0.07006119 0.033186276 -0.115271986 0.116628505
0.045264058 0.02130096 0.013805484 -0.11617776 -0.008075542 0.035388168 0.0018356357 -0.0742244
0.02751595 0.040144395 0.18830034 -0.09385246 0.107559204 -0.077613816 0.07105164 -0.011910782
0.062886864 -0.09018526 0.038660966 0.11845819 0.09377483 -0.03312257 0.10546556 -0.015065188
0.06110604 -0.10412173 0.05468679 0.005734994 -0.051935636 0.0236442 -0.0050548664 0.18921989
-0.15248638 0.063742824 0.12618838 0.15992159 0.14927983 0.13133809 -0.11814044 0.08434828
0.07249 -0.032686148 -0.019683229 -0.09401068 -0.2012875 -0.30272287 -0.17949696 0.13440832
0.0032480874 -0.099662565 0.07499329 0.20219819 -0.052826904 -0.0832425 0.022852805 -0.02242907
-0.2074946 0.18931654 0.124254115 -0.15063663 0.20813024 0.025335256 0.089935 0.13407908
0.11846768 0.10175613 0.18650235 0.11841846 0.022215042 0.061855886 0.15153915 0.052361783
0.061711337 -0.056727555 -0.14495063 0.11890105 0.20303492 0.082366355 0.14506853 -0.0857285
-0.07259743 -0.05909845 -0.07703385 0.16798462 0.035105813 0.054602344 -0.14438476 -0.039521746
-0.015407375 0.055036724 0.08892715 -0.18670802 0.1684345 -0.15330392 -0.15898144 -0.04955227
0.057372816 -0.12928107 -0.13174708 -0.019307528 -0.157629 -0.032244552 0.08173444 0.16273472
0.08337191 -0.010910408 -0.1521281 -0.05231742 0.12254293 -0.12168243 0.062019777 0.0074169654
0.090180434 -0.08908099 0.1775895 -0.08575641 -0.053043026 0.1784815 0.089679845 0.022430062
-0.15434891 0.09800476 -0.056981757 0.06876572 0.12865129 0.15548697 0.00038550652 0.035393998
-0.07372644 -0.14882575 -0.021157375 -0.102781 -0.033023972 0.009273712 0.0021282388 0.19370116
-0.07616859 0.1916789 0.088675454 0.095700204 0.21494925 0.17461525 0.028290847 0.044900414
0.062160477 0.05054628 0.14571398 -0.09877925 0.03500922 -0.049611446 -0.02872541 -0.17108043
0.0013153459 0.03495468 0.15590449 -0.17082186 0.109545976 0.10694246 0.077110246 0.19500749

lstm.bias_ih_l0 f4 [512]
00000000: 8742 bbbe 86a9 20be 3cfc 46be 7d84 c8bb
00000010: 7c66 d1bc fa5e 93bd da48 9abd 6795 d7be
00000020: a6e0 1d3e 9f9a 30be a9ee 2dbe 6779 91be
00000030: b8b1 b03d aff8 5e3d bba1 6ebe ec4f 55bc
00000040: 988e d6be cb99 9abe ecff 33be 10f1 e5bc
00000050: c9be 57be c52c 9ebe f3ac 63be caf3 61be
00000060: 0427 77bd 3a6d 90bd 71b8 52be 494f 98bd
00000070: 0647 59bd f629 8abe fdbf 03bf ad4c 08be
00000080: 2dae 0ebf 374f 10be 17d7 28be 3bed 18bf
00000090: 9b48 02bf dae7 84bd aa2c 8ebd 2b5d ff3b
000000a0: d1e7 9fbe ded4 31be a80d b0bd c11e 40bc
000000b0: c2eb fcbd 4d5a 89bd e454 07be ea68 11be
000000c0: f4da adbe 961b 7cbe 5780 b1bd 1f92 d1bd
000000d0: 3485 3fbe 77d1 c1be d629 34be 58c8 b6bd
000000e0: 8288 dbbe c195 0cbe dada 90be 9eae d7bd
000000f0: f781 0dbf a45e 38be 1f9b 1a3c 9f69 81be
00000100: 271a 71bd 9e53 a2be fb71 76bc a400 2fbe
00000110: 8fd0 a7bc 058a 5ebd e130 b8bd 0b68 6cbc
00000120: 2092 70be c06b b7be b5fc 1ebe f1c8 ccbe
00000130: e120 08bf 5db2 02bd 2bbf b9be 4c6b c83d
00000140: 70ff 3ebd 0a32 7dbc dc7a 33be e4fa c5be
00000150: 1f2d 10be bb0b 79bd 2e38 acbc cfab 59be
00000160: e5ba 09be fc48 31be baa8 c9bd f166 3dbf
00000170: 2841 a8bd 41ab 38bd 7544 afbe d359 e9be
00000180: ff4e 44be 7ffc f7bd bb2b 0cbe 1595 74be
00000190: ce34 3cbe c9d7 f9be 6210 1abf 8547 c9bd
000001a0: 46b3 30be 6da7 8ebe 1466 95be 65ab 58be
000001b0: bcb7 a0bd 8cef 02be 871e abbd e556 17bf
000001c0: 0a68 f9bd e07a 49be d538 09be ba1d 09be
000001d0: 3268 4bbd 090e 6ebe 7351 cabe e183 00be
000001e0: 6224 35bf 3d0b a0be 2795 8cbe 8c11 42be
000001f0: 7b8e 0ebd aed5 1ebf 158f a7be eddb 063e
00000200: 62ac 62be c3b1 a4be 1d6d be3d 3fae 293e
00000210: 8c0a 3b3e 7cf4 75be 92b1 bbbe 2444 85be
00000220: 5eff 81bd 78ea 80bd 4107 eabd d812 6bbe
00000230: 5c4f 7fbe 1e5f 8cbe ecdd 45be aac3 aabd
00000240: 6159 23be a4e5 95be 740b e73c 27cd 90be
00000250: 36a2 99be c6f5 85be 36ba bebc c737 d1bd
00000260: 7673 b73d 373c 28be 5870 01be dfe4 97bc
00000270: 049f b2bd 6107 1fbe eb43 8bbe 596e 62bd
00000280: a35e efbe 1f9c 23be dacb aebd d6a9 bfbe
00000290: d13d 28be 4b9d 3dbe 8fc3 c03c 128b 1f3e
000002a0: 4be9 b6bd 6b0a 45be fa68 babe e623 463c
000002b0: bae5 4dbe e0c2 61be 41c9 cd3d dd65 0e3d
000002c0: 1311 bebe 5a20 96be d4f2 b23c b417 23be
000002d0: 1fc2 9ebe 5acc 98be 4db7 a6be b085 eabc
000002e0: 1b5f d7be e312 0dbe acb0 b5bd 06e7 7cbc
000002f0: 7db7 99be 9985 16bd f34d 93be aab8 0abe
00000300: 1cc1 57bd d15d 1ebe cd2b 223e e179 aabe
00000310: 9f97 4f3e f684 1abd 8ba5 03be 5905 98be
00000320: 5e66 77be 23c7 29be 5e85 74be 8832 f4be
00000330: 4eb8 86be c00d d9bd 4218 a4be ef26 8f3e
00000340: 7d86 eabd 9e99 953b c83a 8a3c 5e58 aabe
00000350: bf2c 74be 921f 60be f23c efbd 29b3 4bbe
00000360: 0521 103d fd85 63be f04e 3cbe 1491 28bf
00000370: 8171 a6be 9088 9cbd bf27 1fbe 560b a6be
00000380: 1ff6 583c 677d 47bd 1745 273c 317b 35bd
00000390: fecc 3fbe ed6e dbbe a7f1 e8be ba2d 73be
000003a0: 0fa3 55be 98c3 ccbe eab8 e1bd f8d6 62be
000003b0: 292a 713d a9e2 8e3c 5e00 8cbe e4c8 f2be
000003c0: 3e80 933c f308 903c e9f9 84bd bbb3 77be
000003d0: 7ffe 8f3d 8c89 57be e1c9 40be 70c6 a6be
000003e0: 99e3 edbe 9a3a 08bf c46a 2abd 5316 6cbe
000003f0: 9797 2c3d 0484 85be 4482 b7be 0ab6 8f3e
-0.36574194 -0.15689668 -0.19432157 -0.0061193095 -0.025561564 -0.0719585 -0.075334266 -0.42106172
0.15417728 -0.17246483 -0.16985573 -0.28412935 0.08627647 0.054436382 -0.23303883 -0.013019543
-0.41905665 -0.3019546 -0.17578095 -0.02806905 -0.21068873 -0.3089353 -0.22233944 -0.22065654
-0.060339943 -0.07052083 -0.20578171 -0.074369974 -0.05304625 -0.2698514 -0.51464826 -0.133105
-0.5573452 -0.14092718 -0.164883 -0.59736985 -0.5089204 -0.06489535 -0.06942113 0.007793089
-0.3123155 -0.17366359 -0.08596355 -0.011726082 -0.12349655 -0.06706677 -0.13215977 -0.14200178
-0.3395611 -0.24619898 -0.08667057 -0.102329485 -0.18703157 -0.37855121 -0.17594084 -0.08924931
-0.42877585 -0.13729002 -0.2829197 -0.105313525 -0.55276436 -0.18004853 0.009436398 -0.25275895
-0.05886283 -0.3170442 -0.0150418235 -0.17090088 -0.02048519 -0.054330844 -0.08993698 -0.014429103
-0.23493242 -0.35824394 -0.15526088 -0.39997056 -0.5317517 -0.03190838 -0.36278662 0.0978609
-0.046630323 -0.015453825 -0.17527336 -0.38667977 -0.14079712 -0.060802203 -0.021022882 -0.21256946
-0.13450201 -0.17312998 -0.09846635 -0.739852 -0.082155526 -0.045085195 -0.34231916 -0.45576343
-0.1917076 -0.12108707 -0.13688557 -0.23884995 -0.18379518 -0.48797444 -0.6018125 -0.098280944
-0.17255887 -0.2786211 -0.29179442 -0.21159132 -0.078475446 -0.12786692 -0.08355432 -0.59116966
-0.12178047 -0.1967578 -0.13400586 -0.13390246 -0.049659915 -0.23247541 -0.39515266 -0.12550308
-0.7075864 -0.31258574 -0.27457544 -0.18952006 -0.03480385 -0.620448 -0.3272635 0.13169833
-0.22136071 -0.3216687 0.092981555 0.16570376 0.18265742 -0.24019045 -0.36658913 -0.2602855
-0.063475356 -0.06294721 -0.11427165 -0.22956407 -0.24932617 -0.2741632 -0.19322938 -0.08338101
-0.15952064 -0.29276764 0.028203703 -0.2828152 -0.3000657 -0.26164073 -0.023282152 -0.10215717
0.08957569 -0.1642922 -0.12640512 -0.018541751 -0.08721736 -0.15530159 -0.27200255 -0.055281017
-0.4675189 -0.15977524 -0.08534975 -0.37434262 -0.16429831 -0.18517034 0.02353075 0.15580395
-0.08931216 -0.19242255 -0.36408216 0.01209352 -0.20107165 -0.22046995 0.10048152 0.034765113
-0.37122402 -0.29321557 0.021844305 -0.15927011 -0.31007478 -0.29843408 -0.32561722 -0.0286282
-0.42064747 -0.13776736 -0.08871588 -0.01543594 -0.30022803 -0.036748502 -0.28770408 -0.13547006
-0.052674398 -0.15465476 0.15837021 -0.3329611 0.20272683 -0.037724458 -0.12856118 -0.2969158
-0.24160144 -0.16579871 -0.23879 -0.47694802 -0.26312488 -0.10598326 -0.32049757 0.2795939
-0.11451433 0.0045654317 0.016873732 -0.33270544 -0.23845194 -0.21887043 -0.11681546 -0.19892563
0.03518774 -0.22219081 -0.18389487 -0.6584637 -0.32508472 -0.07643235 -0.15542506 -0.32430524
0.013242274 -0.048703577 0.010209343 -0.044306938 -0.18730542 -0.42858067 -0.45496866 -0.23747912
-0.20862983 -0.39992976 -0.11021598 -0.22152317 0.058878098 0.017442064 -0.2734403 -0.47418892
0.018005487 0.017582392 -0.06492979 -0.24189655 0.07030963 -0.21048564 -0.1882701 -0.3257327
-0.46462706 -0.5321442 -0.041605726 -0.23055391 0.042136755 -0.26077282 -0.35841572 0.28068572

lstm.bias_hh_l0 f4 [512]
00000000: b5a3 77be ecd7 efbd c2a8 1abe ea5e 9abd
00000010: 0540 c1bd b165 7aba 27ee 38be b171 a2be
00000020: 576e ce3d ac00 bebd 799d 28be 31e1 b2be
00000030: 34bb 0c3d c910 b1bd 205b aebe cb4a 27be
00000040: 9216 d1be d9c4 9dbe 9dc3 8ebd 82e0 49bd
00000050: 1456 85be 9c87 b2be 1f48 6fbe 3843 62be
00000060: b0ce 00be 0025 cbbd 5f56 75be 1d4c a6bd
00000070: 2875 51bd 7613 41be f9bb 02bf 1948 88bd
00000080: 057f 0cbf 5715 1bbe db57 3ebe 191c 3abf
00000090: 00f2 fabe a5c8 91bd 98ba 9dbd 9cbc b0bb
000000a0: 02a7 81be 965b 29be c040 65be 5062 08be
000000b0: 0404 5dbd 7add 34be 6113 2cbd 4ccd 20be
000000c0: bc0f 97be 64c3 78be f117 d7bd 0370 71be
000000d0: 94f2 6bbe 316d c0be e670 a5be 34fa 4abe
000000e0: d469 e1be bbc6 76be 5797 93be d22b f6bd
000000f0: 6e3e 03bf b013 2abe e882 9ebc ec64 1ebe
00000100: a3d7 afbd 1e90 88be e003 06bd c009 4bbe
00000110: 9c85 383d 632d f9ba cffd 39be 17c1 d63b
00000120: d67a 65be dcd0 cabe d798 22be 8e5b 06bf
00000130: d500 0cbf 27b0 0fbe dba5 cbbe ac72 f73d
00000140: d9e0 b8bd 4e73 37bd 71ef dabd b02a b2be
00000150: 1d40 5fbe b949 5fbd 1499 e4bd 96db f6bd
00000160: bdde 2bbe 8e3e 48be 25cf 3ebe 8454 4ebf
00000170: 0519 29be 88b5 a8bd 03e2 cbbe c9be 04bf
00000180: e790 26be 786f 06be 61d5 26be 83bd 36be
00000190: d68e 41be e3e3 ddbe 56ad 12bf ede9 02bd
000001a0: aa9a 53be 4e53 54be 9a45 9abe 23c5 72be
000001b0: 5957 26be a49e 09bd c91d 0abe 8d26 36bf
000001c0: a99b 2abe 0e10 4bbe 8d41 60bd e5ec 5abc
000001d0: dbe4 363b 9da2 cfbd 4ecf 99be bd69 32be
000001e0: 46ac 39bf 8c20 85be 6d8b 78be 4cf0 b3bc
000001f0: 5ea6 07be 91c3 05bf 288c 86be 63db 0a3e
00000200: d69d 26be a5bb 54be 0f50 8e3d f0a3 1c3d
00000210: e423 603e 77ca 82be 1e66 9bbe 6aff 52be
00000220: c613 35bd a8ac 20be fd0a b9bd c0d7 9cbe
00000230: 0a77 7bbe fe2d 2cbe 442f 82be 3089 08be
00000240: fc5a 96be a2eb 79be c52f 40bc 78ec 5dbe
00000250: 2abe a2be b03e 69be 141c 8cbd 14f4 3fbe
00000260: 0b05 3d3e 9833 b0bd eaf8 9f3c ef36 61bd
00000270: c0fa 24be 0c07 eebd bfbe 7dbe 49c9 9bbd
00000280: 8cf5 dfbe 39cb 6ebe c729 04bd e078 94be
00000290: 758b 4ebe 0534 00be 7d3e 0b3e 23b6 923d
000002a0: 38cc 2cbe 444e b7bd 6e07 7dbe 89c7 f93c
000002b0: 202b 0ebe 4272 72bd c57d 5a3d f3cc 9c3d
000002c0: 82c5 cfbe c0c0 92be 502c 033d f834 eabd
000002d0: 79ae b4be 1e24 bbbe 8e2e 30be 5746 87bd
000002e0: c943 dabe 5b18 3fbd d4a0 45be 8c78 8fbd
000002f0: aa75 86be b7e9 733d a952 28be ca06 82be
00000300: 87ef 84bb 23c1 2fbe 6988 233e d5dc 95be
00000310: f7c7 373e a45e 733d 7632 fabd c38a 8bbe
00000320: ecfa 46be 09ba 37be e199 dfbd 78bc ecbe
00000330: ecea 6dbe cad9 c3bd a779 acbe 1f89 943e
00000340: e7d5 aebd 9e94 e13d a79a 073e 5a3b adbe
00000350: 794c 7ebe a295 1dbe 311a 4abd 0b16 56be
00000360: 57f0 c53c 75f8 f9bd be2b a0bd 5c5a 3cbf
00000370: c054 5abe a8cc 63be 2cb9 68be 52e3 d8be
00000380: 2845 07be ab26 7fbd 66ec b6bc 4dcc fcbc
00000390: dedf a1bd 9371 d5be b622 09bf b0d0 96be
000003a0: f16e 4abe 5ca7 cbbe 0a66 9ebd 6ef6 4ebe
000003b0: 77e6 36bd 4675 73ba 1899 92be ac9b e0be
000003c0: 4aa1 423c 6d1b 54bd 8c1d a5bd 93c2 a7be
000003d0: 5d56 9bbc f388 9cbe c7b7 7abe 8409 9bbe
000003e0: eb99 0ebf dcb5 f1be 9d58 bdbd e592 2dbe
000003f0: aff3 1e3d 3289 7dbe 6af5 b9be 764b 9b3e
-0.24183543 -0.11711106 -0.15103438 -0.07537635 -0.09436039 -0.00095518964 -0.18059598 -0.31727365
0.100796394 -0.09277472 -0.16466321 -0.34937432 0.03435822 -0.0864578 -0.34053898 -0.16337125
-0.40837532 -0.30814245 -0.06970904 -0.049286373 -0.26042235 -0.34869087 -0.23367356 -0.22095954
-0.12578845 -0.099191666 -0.23958729 -0.08119986 -0.05113712 -0.1885508 -0.51068074 -0.066543765
-0.54881316 -0.15144859 -0.18588202 -0.72699124 -0.49012756 -0.07118348 -0.077016056 -0.0053935777
-0.2532273 -0.16538844 -0.22387981 -0.13318753 -0.053958908 -0.17662612 -0.04201067 -0.15703315
-0.29504192 -0.24293286 -0.10502613 -0.23577885 -0.23041755 -0.37583306 -0.32312697 -0.19822007
-0.44026053 -0.24099247 -0.288264 -0.12020077 -0.51267135 -0.16609073 -0.01934953 -0.15468186
-0.08586051 -0.26672453 -0.03271854 -0.19827938 0.045049295 -0.0019010719 -0.18163227 0.00655378
-0.2241014 -0.39612472 -0.15878616 -0.5248345 -0.5468877 -0.1403204 -0.39774975 0.12082419
-0.09027261 -0.044787697 -0.10690201 -0.34798193 -0.21801801 -0.054513667 -0.1116201 -0.120536014
-0.16784187 -0.19555113 -0.18633707 -0.8059771 -0.1651345 -0.08237749 -0.3982087 -0.51853615
-0.16266213 -0.1312846 -0.16292335 -0.1784573 -0.18902144 -0.43337926 -0.5729574 -0.03196137
-0.20664468 -0.20734903 -0.30131227 -0.23708014 -0.16244258 -0.033598557 -0.13487925 -0.71152574
-0.16660942 -0.19830343 -0.054750014 -0.013362144 0.0027907405 -0.10138438 -0.30040973 -0.17423148
-0.72528493 -0.26001394 -0.24271937 -0.021965168 -0.13247058 -0.52251536 -0.26278806 0.13560252
-0.16271147 -0.20774706 0.06948864 0.03824228 0.21888691 -0.25545093 -0.30351347 -0.20605245
-0.04420831 -0.15690863 -0.09035299 -0.30633354 -0.24557129 -0.1681442 -0.25426686 -0.13333583
-0.2936629 -0.24406293 -0.011730139 -0.21672237 -0.3178571 -0.2277782 -0.06841293 -0.18745452
0.18458955 -0.08603591 0.019527871 -0.05498403 -0.16111279 -0.11622438 -0.24779795 -0.076067515
-0.43742025 -0.23319711 -0.032266404 -0.2899847 -0.20170386 -0.12519844 0.13598056 0.07163646
-0.16874778 -0.08950475 -0.24709865 0.030490654 -0.13883638 -0.059190996 0.0533426 0.076562785
-0.40580374 -0.28662682 0.03202468 -0.11435884 -0.35289362 -0.36550993 -0.17205259 -0.06605213
-0.4262984 -0.046654087 -0.19299632 -0.07005414 -0.26261646 0.05954906 -0.16437782 -0.25395805
-0.004056874 -0.1716352 0.15970005 -0.29270044 0.17947374 0.05941643 -0.12216656 -0.27254304
-0.19431657 -0.1794206 -0.10918022 -0.4623754 -0.23234147 -0.09563024 -0.33686563 0.29010865
-0.085368924 0.110146746 0.13242589 -0.33834344 -0.2483386 -0.15389112 -0.049341384 -0.20906846
0.024162455 -0.122055925 -0.07820843 -0.7357538 -0.21321392 -0.22246039 -0.22726887 -0.42360932
-0.13209975 -0.062292736 -0.02232952 -0.030859137 -0.079040274 -0.41688213 -0.5356859 -0.2945609
-0.19768883 -0.39776123 -0.07734306 -0.20211193 -0.044653382 -0.00092871895 -0.28632426 -0.43868768
0.011879275 -0.051783968 -0.08062276 -0.32765636 -0.01896208 -0.30573234 -0.24484168 -0.30280697
-0.5570361 -0.4720906 -0.09245417 -0.16950567 0.038806614 -0.24759367 -0.3632005 0.3033101

lstm.weight_ih_l1 f4 [512, 128]
00000000: a8e6 0dbd e734 20be 1b7a b93d 181a 9f3d
00000010: 7538 393e 708c 1a3d d68a 473e b85a cb3d
00000020: 5ce7 64bd 1803 4bbe 5899 8bbd 3126 fa3d
00000030: 8f92 053d cd96 333c 4510 c8bd c440 5d3c
00000040: b07f 34bc 5d8a 5fbd 1840 8dbc f957 253d
00000050: 0436 90bd f22d 95bd aa65 c43c 92c4 723c
00000060: c7c2 37bd 32ec 843d 1318 ef3d 61b8 a13d
00000070: 5436 46bc 0c9a 2a3e 4e0d fd3c 5b57 c5bd
00000080: 6047 eabc ca4b 3ebd eb7b 6bbd 4e39 89bb
00000090: 77e7 b9bd 2ae8 90bd 1b95 143e e693 77bd
000000a0: b0a4 043e ec26 c4bd 6109 333c 31e6 5b3c
000000b0: a102 d1bd a955 26bd 18a4 0b3d 1ebd afbc
000000c0: f7ef b6bc 0924 043d eba0 9abc 4fd1 a83d
000000d0: 32c4 1fbe 9786 c83c 6bd7 cb3d 3020 85bd
000000e0: 32f1 12bd e6c2 9d3d 8e87 713d c371 f83d
000000f0: 1084 043c 7719 7abd d9dd a4bb 6573 b93d
00000100: 3879 353d 123f 97bd 023a 7b3c eb0e 303c
00000110: eced 063d 4182 7c3d f498 a8bd d0b7 35bd
00000120: b914 b6bd 3202 443d a15b 5ebb 0919 a0bd
00000130: 2fa3 a83d c079 a5bd 7c3d 953d 63ce 9dbd
00000140: d9c8 96bd 988b a03c 67d6 1e3e bd5c 9f3d
00000150: 3734 193d 34d5 75bc 0d6d 6dbd 5fd1 61bc
00000160: 55e6 89bd 5dd4 0c3e 1802 033d 7c5f 7c3d
00000170: 1daf ca3c e6f7 44bd 33e9 03bb 72eb 373e
00000180: bb2a de3c b99d a7bd 2d4d 1b3d 0965 56bd
00000190: 1fd6 ac3d b553 eebc b3d4 433d ae6a 3dbd
000001a0: 56da 023e 064c 54bd cde4 ef3c 3d18 613d
000001b0: d52c 2fbd a9fc d2bb ad34 603d eba7 ddbc
000001c0: 9673 ac3d 8c0c 823b 8464 3e3c d84d 7d3d
000001d0: bd09 5b3c f710 833d 625b ef3d c24b 0d3e
000001e0: 9e20 27bd 62f6 16bb f9c5 bebd 8fa8 043d
000001f0: adac e3bd 8a2c 043e 3c20 88bd 3a84 673d
00000200: d60d 0b3c 7381 1739 ae18 3a3d 40c1 003e
00000210: 8890 8a3e e7ed 80bd 23a1 85bc 6767 123e
00000220: 014e c7bd aea8 fdbd 03c1 d83c 59bb d53d
00000230: a13e fb3d 0294 3f3c ccc5 87bd 9e54 033d
00000240: 5893 fcbd fb82 0dbe 3b84 273e dc22 d03c
00000250: 8e69 223d 03a6 053d 5bad 1bbd b907 8dbc
00000260: 13b0 04be 1973 073e 965a 67bc ca92 dfbd
00000270: 5b4c 973d dc03 3d3d 2440 fe3d fe07 fb3d
00000280: 697f 723d 1cd3 f73c 5da4 123e f6a7 b83d
00000290: 5bb2 d4bd c30c 6a3c 1601 9a3d aec9 bcbd
000002a0: 26f7 cc3d cbd3 09be da39 38bd 9da0 f03d
000002b0: dc2b b33d 24ee 1c3e 28ee 15b8 e7ef 9ebd
000002c0: eb76 2fba 0456 c13d 8bbc 50bc 9ee6 d23d
000002d0: d840 cc3c 3391 6ebd e368 3b3d 5cdd 58bd
000002e0: 790f 03bd 2f78 0f3e 5b2a 043e 9655 ebbc
000002f0: d0e7 17bd 8a10 05bd 5bc4 86bd f595 883d
00000300: f38d 52bd a84c 15bd e767 16be 8359 49bc
00000310: 7ba2 2dbe d168 a63c 2c19 bf3d 515a 07bd
00000320: 0fed 80bd db84 88bd 06bb d7bc b262 9e3d
00000330: d81a bebb 86ae 7fbd 450a 31bd 16f6 a7bd
00000340: 9771 d13b 1c53 a639 6c5d 103e 3bbd 85bd
00000350: 5f05 8fbc cf82 73bb c213 853d 097f 55bd
00000360: 4987 81be 7e8c e83d e010 b33c cacf 9bbd
00000370: 8014 ef3d 8ab3 a13d d7de ddbd c857 9d3d
00000380: 2167 00bd 04a6 a83c 3261 d03d e2be 03be
00000390: 70f8 a43d 57ca e2bd baae 09bd 6ffd 99bd
000003a0: 844f f0bc 5867 03bd 12c9 96bc d7ce 4ebd
000003b0: 18dc 8c3c c18b cf3c eea1 d53d b3d5 413c
000003c0: 2f32 aa3c 5d4a 5bbb 0e83 483e ae99 aa3d
000003d0: 1986 813d 813c e33d b487 8d3d cb38 2c3d
000003e0: 1f2b c83b 2442 2bbd bae7 5f3d e669 81bc
000003f0: 8b68 c23d b4a5 133e 5964 27bd ac05 353e
-0.0346438 -0.1564518 0.09056493 0.07768649 0.18087943 0.037731588 0.19486555 0.099294126
-0.055884704 -0.19825399 -0.068163574 0.12214316 0.032610472 0.010961247 -0.09768728 0.013504211
-0.011016771 -0.054575313 -0.017242476 0.0403671 -0.07041553 -0.07284154 0.023974258 0.014817374
-0.04486349 0.06490363 0.11674514 0.078964956 -0.012097914 0.16660327 0.030890133 -0.09635802
-0.028598487 -0.046458997 -0.057491224 -0.0041877395 -0.090773515 -0.07075532 0.14510004 -0.06044378
0.12953448 -0.09577736 0.010927529 0.013421581 -0.102055795 -0.040609036 0.03409204 -0.021452483
-0.022331221 0.03226093 -0.01887556 0.082430474 -0.15602186 0.02447824 0.09953197 -0.0650028
-0.035874553 0.077031896 0.058967166 0.12131073 0.008088127 -0.06105944 -0.005031329 0.09055213
0.044305056 -0.073850766 0.015333654 0.010745744 0.032941744 0.061647657 -0.082322985 -0.04436475
-0.08890671 0.047853656 -0.0033929127 -0.07817275 0.0823425 -0.080798626 0.07287118 -0.07705381
-0.073625274 0.019597813 0.15511476 0.0778136 0.03740331 -0.015004445 -0.057965327 -0.013782828
-0.067333855 0.13752885 0.03198442 0.0616145 0.024741704 -0.048087977 -0.0020128011 0.17960909
0.027119985 -0.0818438 0.037915397 -0.05234245 0.08439278 -0.029092649 0.047810268 -0.046244316
0.12778601 -0.051830314 0.029283905 0.054954756 -0.042767365 -0.006438811 0.054737736 -0.027057609
0.08420484 0.003968781 0.0116206445 0.061841816 0.013369021 0.0639972 0.11687352 0.1379843
-0.04080259 -0.002303504 -0.09315104 0.032387313 -0.1111692 0.12907615 -0.06646773 0.056522585
0.008487185 0.00014448706 0.045433693 0.12573719 0.27063394 -0.06295376 -0.016312188 0.14297257
-0.09731675 -0.12385689 0.026459223 0.10436124 0.12267805 0.011693003 -0.06629524 0.03206312
-0.12332791 -0.13819496 0.16359036 0.025407247 0.039651446 0.032629024 -0.03800712 -0.017215597
-0.12957792 0.132275 -0.014120718 -0.1091667 0.073876105 0.04614626 0.124145776 0.12257384
0.05920354 0.030252032 0.14320512 0.09016411 -0.10385581 0.014285269 0.075197384 -0.09218155
0.10008077 -0.13459699 -0.044977047 0.117493846 0.087486 0.15325218 -3.574617e-05 -0.077606015
-0.00066934404 0.09440234 -0.012740265 0.10297893 0.024933264 -0.05824394 0.045754325 -0.05294548
-0.031997178 0.1401069 0.12906782 -0.028727334 -0.037086308 -0.032486476 -0.065804206 0.06669227
-0.051404905 -0.03645006 -0.14688073 -0.012289408 -0.16956513 0.020313652 0.09330973 -0.033045117
-0.06295215 -0.06665965 -0.026334297 0.077336684 -0.00580154 -0.062422298 -0.043222684 -0.08201234
0.006391715 0.0003172391 0.14098138 -0.065302335 -0.017458616 -0.0037156825 0.06497909 -0.052123103
-0.25298527 0.11354922 0.021858633 -0.07607992 0.11673832 0.078955725 -0.10833519 0.076827586
-0.03134835 0.020586975 0.101747885 -0.12865785 0.08055198 -0.110737495 -0.033613898 -0.07519042
-0.029334791 -0.03208098 -0.018406425 -0.050490227 0.017194793 0.025335195 0.10431276 0.011830735
0.020775883 -0.0033461072 0.19581243 0.08330093 0.06324405 0.110955246 0.06910649 0.04204635
0.006108656 -0.041811123 0.05466435 -0.015797567 0.09492596 0.1441868 -0.040867183 0.17677945

lstm.weight_hh_l1 f4 [512, 128]
00000000: 944a cf3d ebc5 02bd a1cb a7bb 2549 97bd
00000010: a458 053d e401 373d d53c eebd f128 0c3e
00000020: 795d bb3c d76a 9d3d 38f0 2ebc bd81 d8bd
00000030: c9e5 c0bc a400 dcbb f107 1dbd 06f7 05be
00000040: 4545 383c 0469 273e a68f 9dbe 4ce3 0bbd
00000050: 057d 5fbd e7fb 06be 5a30 c6bc fe42 993d
00000060: 4098 3d3e 2dfe f6bc 4ada 223e 12e6 7ebd
00000070: 02e1 0c3e d96f 00be 0458 0dbe 9c0c 2ebe
00000080: 2241 a2bd be2d 183e ccdc 21bd 09ae 2a3d
00000090: f15f 9cbd 65f8 133e fc43 96bc 1d66 02be
000000a0: 4e0b c13e 84e1 133e 1f93 443d 4b07 4cbe
000000b0: 0e39 dfbd 774c 3abe 2a5a acbd 2fce 38bd
000000c0: ab2b f3ba 9ab3 1ebe 8a90 573e 7993 84bd
000000d0: 7d4d 373e f04d d4bd 00cd 493e f45e 703c
000000e0: 17d1 593e 4837 e83d dbab e93c 2fb3 9fbd
000000f0: ea57 e3be db28 3bbe baaf 063e 97f6 82bc
00000100: e243 a23d 9c08 aa3d 1742 0bbe c185 3dbd
00000110: 779f 073d 549b 65bc 781a 84bc ac78 103d
00000120: 9103 df3c fcef df3c a0db 423e c4f0 04be
00000130: 3271 993b 0d7d ed3d efec 7bbc 9cf7 46bd
00000140: 3356 4d3c f0f4 513b 7207 0f3e 31f0 103e
00000150: 94ce dc3c 3f63 66be 734b fbbd 17e3 263d
00000160: 5fa2 003e 14a3 8d3d b75f bbbb 0a4f a9bd
00000170: c624 b0bc 0ffb 273e 37ee b33d 78e5 ac3d
00000180: 884d 31bd c3e5 bebd d153 10be 230a a13d
00000190: f9c4 c03c 707e de3d e4da d03b 1481 1ebe
000001a0: f112 6b3d 7ff0 3f3e b77e 2c3a e243 d93c
000001b0: 725e c93c 1855 c23c 030e 39bd 5514 0cbd
000001c0: d43e 033c 28b4 1bbd 2fd8 463c 3dab d8bb
000001d0: 9a6c d43d 370b 6fbd e11e 313e b98e 24bb
000001e0: c45b d63d 0974 c83d b1d2 043e 9392 033d
000001f0: dab3 ae3d fcf6 4dbd 28c0 c93d bfec ebbd
00000200: 7c9c aebc 6ab8 d0bd cf11 0b3d 746d f83c
00000210: 7ff4 bcbd 21da 343e ded0 15be 8761 0c3e
00000220: 3d80 ee3c 2787 213e afa3 ecbd 95a7 96bd
00000230: 9c36 60bd eda4 233d d9c6 a73c 0005 d0bc
00000240: 3317 bb3c 2006 563d ca37 eabe 5593 3ebd
00000250: 0bf5 c83c a99a 25be a0a6 fcbd 9184 babb
00000260: d032 3d3e e572 66bd 2e62 a43d cd4d 86bd
00000270: 6809 233e daba 81be c9ce ff3c e70a 05bd
00000280: 0c69 c33d 1a49 96bd 5cdc 4d3d 96c8 2a3d
00000290: f93c 60bd 75de d23d 905e bc3d 9cd8 093d
000002a0: a251 3e3f a8a1 7d3b befc 1a3e 0a71 0abe
000002b0: e2c9 c8bc 86c6 a1bd c3cb 653d 998f 94bd
000002c0: 1624 f9bc dabc a83d 6815 c33e 110e 78bd
000002d0: c4e7 873d 8791 be3d a445 0b3e d39b 23bd
000002e0: c017 e53c 9cb0 743d 7494 9fbd a0d4 c23c
000002f0: 349c c8be aac4 84be 4b40 cd3c fbb9 803d
00000300: ebcb 4c3c a398 8b3e bb81 d9bc 7bf3 3cbc
00000310: 7c50 22bc 44db aebd 8c04 5ebe 7708 c5bd
00000320: 0d52 5f3d f4be 0fbe 20ed a63d 8d26 c0be
00000330: a658 093e 9dfe a2bc 2b86 60bd c627 723d
00000340: 4ac3 103e 5541 e8bd 9fac f53d d04a 8b3d
00000350: 0880 31bc 449f eebe edfb 4d3c dad4 ff3d
00000360: 3095 163e a879 d4bd 3f3d 6c3d 37e8 f4bd
00000370: f8ea a8bd 9015 b43e a7ac f33d b9db 5bbd
00000380: 6a60 9fbc 4542 8bbc 9140 f2bb 5c96 29bd
00000390: 8153 9cbd 9852 e63d fadc 183d 4254 1fbc
000003a0: 6d86 89bb 42f9 513e ffd2 b13d 32b6 663e
000003b0: e0ad 133e ed27 06bd 66d4 0bbe 460c 313d
000003c0: 911f a4bb d176 08bd 9256 d6bd 450a 8e3d
000003d0: 3af8 803d 225f c73c e0ee 783e e83a 03bc
000003e0: 6d58 3b3e f947 133c be7c c7bc 3a8f f33d
000003f0: b718 ccbc c5fb aabd 0d5b 043e 5ac4 95be
0.101216465 -0.03192703 -0.00512071 -0.07386998 0.032555237 0.044679537 -0.116326965 0.13687493
0.02287172 0.07686394 -0.01067739 -0.105716206 -0.02354707 -0.0067139436 -0.03833765 -0.13082513
0.011246984 0.16348654 -0.30773658 -0.034152314 -0.054562587 -0.1318203 -0.024192978 0.07483481
0.1851511 -0.030150497 0.15903583 -0.06223113 0.13757709 -0.12542666 -0.13803107 -0.16996998
-0.07922579 0.148612 -0.03951721 0.04166988 -0.07635487 0.14450224 -0.018342964 -0.12734266
0.37703937 0.14441496 0.047991868 -0.19924657 -0.10899554 -0.18193232 -0.08415635 -0.045118507
-0.0018552443 -0.154982 0.21051231 -0.06473441 0.17900653 -0.10366428 0.19707108 0.014671076
0.21271168 0.11338669 0.02852433 -0.077978484 -0.4440301 -0.18277304 0.13152972 -0.015986724
0.07923104 0.08302423 -0.1359943 -0.046270136 0.033111062 -0.014014084 -0.016125903 0.03527133
0.02722338 0.027336113 0.19029093 -0.1298247 0.0046826834 0.11596117 -0.015376314 -0.048575982
0.0125327585 0.0032036863 0.13967684 0.14154126 0.026953973 -0.22498797 -0.1227025 0.040743914
0.1256194 0.0691587 -0.005718197 -0.08267029 -0.02150191 0.16404365 0.0878567 0.08442205
-0.04328683 -0.09321167 -0.14094473 0.078632616 0.023531424 0.1086396 0.00637375 -0.15478927
0.05739111 0.18744086 0.0006580161 0.026521627 0.024581168 0.023722216 -0.04517938 -0.034199078
0.008010585 -0.038013607 0.012136503 -0.00661221 0.103722766 -0.058360305 0.17296936 -0.0025109483
0.10466722 0.09787757 0.12970997 0.032122206 0.08530398 -0.05028437 0.09851104 -0.11519765
-0.021314852 -0.10191424 0.03395253 0.030325629 -0.092263214 0.17661335 -0.14630458 0.13709079
0.029113883 0.15774213 -0.11554658 -0.073561825 -0.05473958 0.039952207 0.02048056 -0.02539301
0.02283821 0.052251935 -0.4574569 -0.046527226 0.024530908 -0.1617228 -0.12336469 -0.0056920727
0.18476415 -0.056261916 0.08026539 -0.06557808 0.15921557 -0.2533787 0.031226533 -0.0324811
0.095415205 -0.07338162 0.05025898 0.0416952 -0.054745648 0.102963366 0.09197724 0.03365384
0.7434331 0.003870109 0.15135476 -0.13519683 -0.024510328 -0.078991935 0.056102525 -0.072539516
-0.030412715 0.082391456 0.3810227 -0.06056029 0.06636003 0.09305101 0.13600785 -0.039943527
0.027965426 0.05973874 -0.07791987 0.023783028 -0.39181674 -0.25931293 0.025055071 0.06285473
0.01249979 0.2726489 -0.026551118 -0.01153266 -0.009906884 -0.08537915 -0.21681422 -0.09620755
0.05452161 -0.14037687 0.08150697 -0.37529412 0.13412723 -0.0198968 -0.054815453 0.059119962
0.14136997 -0.11340586 0.119958155 0.06801379 -0.010833748 -0.46605885 0.012572271 0.1249177
0.14705348 -0.103747666 0.057675596 -0.11958354 -0.08247942 0.351727 0.11898165 -0.05367634
-0.019455153 -0.016999373 -0.007392951 -0.04140316 -0.076331146 0.11246222 0.037320115 -0.0097246785
-0.004196933 0.2050524 0.086828224 0.2253044 0.14421797 -0.03275292 -0.13655242 0.043224595
-0.005008646 -0.033316437 -0.10465731 0.069355525 0.062973455 0.024337355 0.24309874 -0.00800965
0.1829545 0.008989328 -0.024351474 0.11892553 -0.024914129 -0.083488025 0.12925358 -0.29251367

lstm.bias_ih_l1 f4 [512]
00000000: dd5f 37be c6b4 aebe 0da4 98be adbd 25bf
00000010: 793c 87be 66b7 97bd 5117 3abe 34ae 38be
00000020: 0281 5abe 37b0 85bb 20a7 8bbe c72a 02bf
00000030: 5260 a3be 2841 46be 791d d1be 6512 febe
00000040: cae9 55be 59cd c3be 00c5 343e 6801 f7bd
00000050: 70b9 2dbe 32e0 58bc ad0e 8ebe fde7 a3be
00000060: af18 313c 2cf8 8fbe 8cb7 bfbe ff75 98be
00000070: be1d 75be 6ad6 e63d eb6e 89be 8480 04bf
00000080: 9f26 abbe 181f cfbe cd56 c2be 6e1c ddbe
00000090: 8574 f3be 77fa 84be 16ee a5be 76bc f2be
000000a0: ef6f 47bb 94cf 70be 0e5e 0fbe 06ab 80be
000000b0: c2e0 c5be bc2d bfbe f1c6 dbbd d74d 49be
000000c0: 902d c3be cb08 bcbe 9350 3dbd 7698 a2be
000000d0: bdaf e7be f859 08bf e46d 3cbe 38ea a7be
000000e0: a140 27be 9fe0 b3be 8204 b2be 81a7 afbe
000000f0: 5b8a 6d3d dd76 5ebe 0696 0ebe 8e09 8cbe
00000100: c264 a5be 1017 92bd 56ba 31be 8697 86be
00000110: 92f2 95be 6ce2 85bd 486b 99be ae40 88be
00000120: abb0 91be f42f 95be 35a3 47be a469 97bc
00000130: 72e4 dabe 6aa2 efbe 56ae 89be 4fb3 1dbf
00000140: 53fa 89be 0990 88be c266 5ebe 5af5 68be
00000150: 997b 3ebf 62c3 33bd 86eb 8abe 346c 98be
00000160: 913f 84be 6866 a6bd 1863 cbbe 1935 5cbe
00000170: 30d8 bebe 71fd 003e 4c93 8fbe d512 98be
00000180: 1d7f c2be 88f8 73be eea7 c8be 2bf6 b0be
00000190: 822d 9cbe 0c1d 91be 205a aabe 8a83 7cbe
000001a0: 699b 0cbe 5ee3 083e 7eeb 10be 69cf 0ebe
000001b0: 114f 62be db19 e93d aad3 8bbe f874 2bbd
000001c0: a53c 33be 29a3 ebbd 3981 a6be f59a 88be
000001d0: 0357 07be 2a3b b6be e2f4 2fbe c2b4 93bd
000001e0: 461a b7bd 20dd a3bd c21e 4fbe 5e31 5dbe
000001f0: c90e 8abe da54 a2be 23b9 5ebe aba7 2b3d
00000200: e0e1 2abd 2e71 87bd d429 11be 7cf8 dbbe
00000210: 37ae 8ebd c9bc f43d dcd6 323e 8dee f5bd
00000220: c4d2 2ebd 6ebe d53a c3fa 05be f0ff 2dbf
00000230: a0f5 6abe 4f51 0bbd a211 53be e9e8 aabe
00000240: e5df 47bd ddd3 95be 7be5 663e 121f c7bc
00000250: 5f67 28bc 3c1a dd3d 851b 31bc e9af bdbd
00000260: ee1d 5f3e d042 b0bd e822 aebc 4149 593c
00000270: 7d1b 6abe 8227 113d 2252 6ebe 7a70 5cbe
00000280: 2ba6 5cbc f2fe e7bd f42f 52be a84d 72be
00000290: f166 b2be fd84 05be 84e0 b3bc 11b2 92be
000002a0: 70be 21bd b62f 2cbb 91e8 89bd 189b 01be
000002b0: 1e00 7abe e3b0 cebe 5be6 27be b723 ccbd
000002c0: 77d4 cebd e96f 41be 8098 923d 620a 2bbd
000002d0: b5b6 83be cf59 9ebe 4cf5 ff3b 1ae1 35be
000002e0: c6ce 4dbc 98c5 01be 5f91 3ebe 342c 393c
000002f0: 24bf 163e 5162 57bd 80c0 7bbd 946e 80be
00000300: 3405 7ebd 6810 1e3b 167d ffb9 523d 843a
00000310: 4e1c 55be bc74 283e 6754 0bbe 1e6e 243c
00000320: d565 05be 8d45 d03c bc63 1abd 408a 253e
00000330: 1464 61be f51e 73be 420c b9bc 9709 a1be
00000340: c980 48bd 802b 22be a784 b2bd 7fc5 0b3d
00000350: a9f6 a2be c974 f2bc aa25 10bd 3cf4 f839
00000360: 636f dabd 66a3 89bd 0f1c 63be 9794 babb
00000370: 12b4 82be 6862 603d 70d9 11be 74aa 6bbd
00000380: f174 1cbd ee63 8cbd d4f8 50be 3df5 c8bd
00000390: 03a3 5abe b766 5abe 1142 c7be bc4a 76bd
000003a0: 9788 34bc 6f48 db3c 96e9 a3bd 7e39 87bd
000003b0: 5d40 8bbd fc88 003d 67da d1bd 19fa 123e
000003c0: 4da5 893c b885 723d 4959 d7bd 3089 16be
000003d0: 07a6 aebd 421c 4fbe a0f6 0fbd d021 2abd
000003e0: 713d edbd ed40 d2bb 9046 fc3c 7e27 ddbd
000003f0: 9c2b 9abd da55 883d 1ebc 4dbe d102 0a3e
-0.17907663 -0.34122294 -0.2981266 -0.6474255 -0.26413324 -0.07408027 -0.18172957 -0.18035203
-0.21338275 -0.0040798443 -0.27275944 -0.50846523 -0.31909424 -0.19360793 -0.40842798 -0.4962341
-0.20889965 -0.38242605 0.17653275 -0.12060815 -0.1696527 -0.013237046 -0.27745572 -0.3201293
0.010809108 -0.28119028 -0.37444723 -0.29777524 -0.23937127 0.11271365 -0.26842436 -0.517586
-0.33427903 -0.4045341 -0.3795685 -0.43185753 -0.47549835 -0.2597234 -0.32408208 -0.4740941
-0.0030431708 -0.23516685 -0.14000723 -0.2513048 -0.3864804 -0.3733958 -0.107313044 -0.196586
-0.381207 -0.36725459 -0.04621942 -0.31756943 -0.45251265 -0.5326228 -0.18401295 -0.32795882
-0.16333248 -0.3513231 -0.34769064 -0.34307483 0.057993274 -0.2172503 -0.13924417 -0.2735104
-0.32303435 -0.07133305 -0.17356238 -0.26287478 -0.2928663 -0.06537327 -0.29964662 -0.26611847
-0.284551 -0.29138148 -0.19495852 -0.01848299 -0.42752415 -0.468036 -0.2689082 -0.6160173
-0.26948795 -0.2667239 -0.21718886 -0.22749844 -0.74407345 -0.043887503 -0.27132815 -0.29770052
-0.25829747 -0.08125001 -0.3972404 -0.2150463 -0.37274313 0.1259668 -0.28042066 -0.29701868
-0.37987605 -0.23825276 -0.3919062 -0.3456281 -0.3050347 -0.28342474 -0.33271885 -0.24659553
-0.1373116 0.13367984 -0.14152333 -0.13946308 -0.22100474 0.11381885 -0.27309924 -0.041859597
-0.17503603 -0.1150573 -0.32520464 -0.26680723 -0.13216786 -0.35592014 -0.17183259 -0.07212211
-0.08940558 -0.080011606 -0.20226577 -0.21600863 -0.26964405 -0.31705362 -0.21750312 0.041907948
-0.041719317 -0.06613384 -0.14176112 -0.42963016 -0.069668226 0.119500704 0.17464775 -0.120083906
-0.04268147 0.0016307363 -0.13083939 -0.67968655 -0.22945261 -0.03401309 -0.20612195 -0.3338082
-0.048797507 -0.292632 0.22548477 -0.024306808 -0.010278552 0.107960194 -0.010809784 -0.09262068
0.21788761 -0.086064935 -0.021256879 0.013262094 -0.22862048 0.03543807 -0.23273519 -0.21527281
-0.013467352 -0.11327924 -0.20526105 -0.23662436 -0.34844163 -0.13039012 -0.021957643 -0.2865148
-0.039488256 -0.0026273555 -0.06733812 -0.1265682 -0.24414107 -0.4036933 -0.16396467 -0.099677496
-0.10099118 -0.18890347 0.07157993 -0.04175795 -0.25725332 -0.30927894 0.007811224 -0.1776165
-0.012561506 -0.12673032 -0.18610142 0.011302043 0.14721352 -0.052583996 -0.06146288 -0.25084364
-0.06201668 0.0024118666 -0.00048730586 0.0010089076 -0.20811579 0.1645078 -0.13606416 0.01003602
-0.13027127 0.02542379 -0.03769277 0.1616602 -0.22010833 -0.23742278 -0.022588853 -0.3145263
-0.048950944 -0.15836906 -0.08716708 0.034123894 -0.31828812 -0.029596703 -0.03519217 0.00047484215
-0.106657766 -0.06720619 -0.22178672 -0.005693983 -0.25528008 0.054781348 -0.14243102 -0.057535604
-0.03819746 -0.068549976 -0.2040742 -0.098124005 -0.21351247 -0.21328245 -0.38917592 -0.060129866
-0.011018894 0.026767937 -0.08003537 -0.06602763 -0.06799386 0.03138064 -0.10246735 0.14353217
0.016802454 0.059209555 -0.10515077 -0.1470077 -0.08527761 -0.20225623 -0.03514731 -0.041536152
-0.11583985 -0.006416431 0.030795366 -0.10798548 -0.07527849 0.06657 -0.20091292 0.13477637

lstm.bias_hh_l1 f4 [512]
00000000: 0a1c 97be a741 97be 6314 dbbe 1f18 20bf
00000010: 79d5 c7be b711 d7bc fd7b b3bd fd1b 2abe
00000020: ccf7 84be cdff 63bd 529b a3be 3be4 dabe
00000030: 2e22 c7be b2c3 4bbe 7ae1 02bf 1886 0abf
00000040: de5a 9fbe 1e9e f0be 4cec d93d 7505 48be
00000050: 92a6 56be 642b ec3b 0112 42be 262e 90be
00000060: 9077 ae3b abaa afbe 0d0d 98be 2887 75be
00000070: ef7a bbbe 077b 8ebc 8db8 b7be b42e f1be
00000080: abe0 91be 8830 bbbe edc6 eebe cc52 bdbe
00000090: e34d d8be 86dd 84be 2ed3 b5be 42fe f3be
000000a0: a342 0d3e e326 88be caf8 81be b5d2 4fbe
000000b0: 20f3 b2be 8882 b4be 27dd 39be 99d2 44be
000000c0: 1e3b b7be a282 dbbe 6174 9fbd 266d 90be
000000d0: 136d dabe 2078 03bf 79e7 e4bc addd 8cbe
000000e0: c796 4ebe f70e ccbe 58d6 bbbe e874 6cbe
000000f0: bf89 8c3d 2d00 ebbd 248e 20be 6c2e b7be
00000100: edbe 7cbe 9a9b 07bd 0a0a 2bbe 8966 47be
00000110: 1006 93be 5494 f2bc 1131 7dbe f29f 6dbe
00000120: 2df6 43be c233 94be 0fc6 1fbe b41a 023d
00000130: 09c2 8abe 1e60 fcbe 1e41 83be 62ba 0ebf
00000140: d977 9abe 3598 2ebe da40 67be 9a30 63be
00000150: dbcc 19bf d091 55bc afac c1be b780 7abe
00000160: d66b 22be fe62 0bbe e6cd cdbe 87bd 6dbe
00000170: 0c04 b4be 5a2d 433e 3e9e d5be b80c 57be
00000180: b22f a1be d82b 7bbe ae39 d6be c500 a5be
00000190: da77 99be ce71 93be 32c6 b1be 8ac4 79be
000001a0: 0d8d 4fbe f544 70bc cf1d 5ebe fbf4 e7bd
000001b0: 593a 3dbe 1505 983d c585 11be ce49 57bd
000001c0: 0312 17be 21ef c1bd 0d3e 95be 645d b6be
000001d0: a526 16be 8d2f 87be 5811 19be 20da 35be
000001e0: ce30 26be 886d f5bd 1011 96be f24b 35be
000001f0: 870b b9be a148 3ebe fe88 a6be e0f8 c0bd
00000200: 3668 14be 25c0 12be d90b 58be 2aa3 a2be
00000210: d7b3 47be e1c1 9c3d 8336 963d 857b 4f3d
00000220: fe1d 29be d147 9b3d 9036 48be 5116 0bbf
00000230: 4c1d 4fbe d446 1ebe b233 42be 5c07 24be
00000240: 8dcf febd b2ce 86be c342 703e cb1e 2dbe
00000250: d5ea a03c 2049 023e b780 6cbd e5bf 55bd
00000260: d208 633e 9841 dfbd c0b6 64bd bcec ddbd
00000270: 3638 babd a993 cf3d 0098 63be 55e7 b1be
00000280: ddb0 01be a2f1 dabd 31fe 02be c844 6dbe
00000290: bb42 d8be d1b5 25be 3a2f c8bd 719e 47be
000002a0: 8030 d63d 7edb 96bc ec48 05be 4f95 d9bd
000002b0: 734f 91be 1f52 ccbe 6cb6 81bc 940a e4bb
000002c0: 7cd6 e3bc 3f09 54be 080f af3d 9e43 a3bb
000002d0: 2563 07be 9f41 52be c2c2 79bd ac5b 24be
000002e0: 2dd5 b43c 9d29 b8bd 57c0 53be 0b39 12bd
000002f0: 10a3 db3d 0797 39bd bfd7 adbd 1cf3 38be
00000300: 2d4d d2bd 6f61 3b3d 2ec0 d2bd 5589 fbbd
00000310: 0042 76be 8457 433d ca89 803c 948d 90bd
00000320: 1f6a 6cbd d538 07be aefa 293d 4087 3b3d
00000330: fe46 6bbe 4d1d eabd 2796 24bc e5e8 bbbe
00000340: 31f7 acbd 3193 8fbd 9546 3abb 0d80 90bb
00000350: 40b6 9abe 3b3c 1ebd 5442 4fbd 3657 11bc
00000360: bad3 02be 86dc 30bd 9c97 89be e4b3 593c
00000370: 8bc3 3ebe 5a6f 043e 2a14 2bbe bfc7 4e3c
00000380: 1443 14be 0769 0aba 4220 89be fb5a 07be
00000390: 4915 09be bb55 28be 3b66 d1be 340f bdbd
000003a0: 7f76 993d 711d be3d 395c 67bb e07c ab3c
000003b0: 47ce 863d b2bc 38bd 678c 233c c865 013e
000003c0: 98d1 94bc 24f2 773d a0fb 3abe 8ab4 41be
000003d0: 9f86 e7bd f060 0abe 0ffd 20bb 17c4 babd
000003e0: 653d 72bd 9ee7 a53d a512 9cbd 74b8 e0bd
000003f0: fd60 adbd ea46 0b3d feb9 7dbe 237d 0d3d
-0.2951358 -0.29542276 -0.4278899 -0.62536806 -0.39030054 -0.026253564 -0.08763883 -0.16612239
-0.25970304 -0.055663873 -0.31954437 -0.4275225 -0.38893265 -0.1989887 -0.511253 -0.5411086
-0.31124014 -0.46995634 0.10640773 -0.19533332 -0.20961979 0.007207321 -0.1895218 -0.28160208
0.0053243116 -0.34309897 -0.29697457 -0.2397734 -0.36617228 -0.017392648 -0.3588299 -0.47105944
-0.2849172 -0.36560464 -0.46636143 -0.36977232 -0.42246923 -0.2595026 -0.3551268 -0.4765492
0.13794951 -0.26592168 -0.25385123 -0.20295222 -0.34951115 -0.35255837 -0.18150769 -0.19220962
-0.3578729 -0.42873102 -0.077858694 -0.28208274 -0.42661342 -0.5135517 -0.027942406 -0.27512875
-0.20174704 -0.39855167 -0.3668697 -0.23091471 0.068622105 -0.11474643 -0.15679222 -0.35777605
-0.24682207 -0.033107378 -0.16703048 -0.19472708 -0.28715563 -0.029611744 -0.24725749 -0.23205546
-0.19136877 -0.28945738 -0.15602897 0.031763747 -0.27101162 -0.49292082 -0.25635618 -0.5575315
-0.30169562 -0.1705025 -0.22583333 -0.22186509 -0.6007821 -0.013035253 -0.3782706 -0.24463163
-0.15861449 -0.13611981 -0.4019615 -0.2321683 -0.35159338 0.19060269 -0.41722292 -0.21000946
-0.314817 -0.24528444 -0.4184088 -0.3222715 -0.29974252 -0.28797764 -0.34721524 -0.2439138
-0.2026865 -0.014664878 -0.21691059 -0.11326023 -0.18479289 0.07422844 -0.14211185 -0.05256062
-0.14752965 -0.09469438 -0.29148903 -0.35618126 -0.14663179 -0.26403466 -0.14948022 -0.1775899
-0.16229555 -0.11983782 -0.29309893 -0.17704752 -0.36141607 -0.18582393 -0.32526392 -0.09422469
-0.14492878 -0.1433111 -0.2109827 -0.3176511 -0.19502197 0.07654167 0.07334616 0.050654907
-0.16515347 0.07582057 -0.19552064 -0.5433093 -0.2022602 -0.15456706 -0.18965033 -0.16018432
-0.12441931 -0.2632957 0.23462968 -0.16906278 0.019643227 0.12723207 -0.05773994 -0.052184958
0.22171333 -0.10901183 -0.055838346 -0.10836169 -0.09092753 0.10135586 -0.22225952 -0.34746805
-0.12665124 -0.10690619 -0.12792279 -0.23170769 -0.4223841 -0.16182639 -0.09774633 -0.19494034
0.104584694 -0.018415209 -0.13016099 -0.106241815 -0.28380927 -0.39906403 -0.015834056 -0.006959269
-0.027812235 -0.20706652 0.08547789 -0.004982426 -0.13221414 -0.20532845 -0.06097675 -0.16050595
0.022074306 -0.08992312 -0.2067884 -0.03569893 0.10724461 -0.045310047 -0.08488416 -0.18061489
-0.10268626 0.045747217 -0.102905616 -0.122820534 -0.24048615 0.047690883 0.015690703 -0.07058254
-0.057718392 -0.13205273 0.041498832 0.04578328 -0.229763 -0.1143137 -0.010045565 -0.36701122
-0.084455855 -0.070104964 -0.0028423418 -0.004409796 -0.3021717 -0.03863166 -0.050600365 -0.00887089
-0.1277608 -0.043179058 -0.2687348 0.013287518 -0.18629281 0.12933102 -0.1670691 0.012620865
-0.14478713 -0.00052799325 -0.26782423 -0.132183 -0.13387026 -0.16438954 -0.40898308 -0.092314154
0.074933045 0.09282959 -0.0035302772 0.020933568 0.06582313 -0.04510183 0.009982205 0.12636483
-0.018166348 0.060533658 -0.1826005 -0.18916526 -0.11304974 -0.13513541 -0.0024564897 -0.091194324
-0.05914058 0.08100818 -0.07620744 -0.10972682 -0.08465765 0.034003176 -0.24777982 0.034543168
